…
2024-10-10 15:32:05,376 - INFO - device: cuda
2024-10-10 15:32:05,376 - INFO - sc_path: ../cancer_single_cell_data/processed_data_2000.h5ad
2024-10-10 15:32:05,376 - INFO - bulk_path: ../cancer_brca_metabric_bulk_data/data_mrna_illumina_microarray_zscores_ref_diploid_samples.txt
2024-10-10 15:32:05,376 - INFO - stage_path: ../cancer_brca_metabric_bulk_data/Tumor_Stage.txt
2024-10-10 15:32:05,376 - INFO - survival_path: ../Synapse_metabric/Clinical_Overall_Survival_Data_from_METABRIC.txt
2024-10-10 15:32:05,376 - INFO - Model Architectures:
2024-10-10 15:32:05,376 - INFO - Encoder: GeneResNetEncoder(
  (initial_layer): Sequential(
    (0): Linear(in_features=1078, out_features=512, bias=True)
    (1): BatchNorm1d(512, eps=1e-05, momentum=0.1, affine=True, track_running_stats=True)
    (2): ReLU(inplace=True)
  )
  (layer1): Sequential(
    (0): GeneResNetBlock(
      (fc1): Linear(in_features=512, out_features=128, bias=True)
      (bn1): BatchNorm1d(128, eps=1e-05, momentum=0.1, affine=True, track_running_stats=True)
      (fc2): Linear(in_features=128, out_features=128, bias=True)
      (bn2): BatchNorm1d(128, eps=1e-05, momentum=0.1, affine=True, track_running_stats=True)
      (fc3): Linear(in_features=128, out_features=512, bias=True)
      (bn3): BatchNorm1d(512, eps=1e-05, momentum=0.1, affine=True, track_running_stats=True)
      (relu): ReLU(inplace=True)
    )
    (1): GeneResNetBlock(
      (fc1): Linear(in_features=512, out_features=128, bias=True)
      (bn1): BatchNorm1d(128, eps=1e-05, momentum=0.1, affine=True, track_running_stats=True)
      (fc2): Linear(in_features=128, out_features=128, bias=True)
      (bn2): BatchNorm1d(128, eps=1e-05, momentum=0.1, affine=True, track_running_stats=True)
      (fc3): Linear(in_features=128, out_features=512, bias=True)
      (bn3): BatchNorm1d(512, eps=1e-05, momentum=0.1, affine=True, track_running_stats=True)
      (relu): ReLU(inplace=True)
    )
  )
  (layer2): Sequential(
    (0): GeneResNetBlock(
      (fc1): Linear(in_features=512, out_features=64, bias=True)
      (bn1): BatchNorm1d(64, eps=1e-05, momentum=0.1, affine=True, track_running_stats=True)
      (fc2): Linear(in_features=64, out_features=64, bias=True)
      (bn2): BatchNorm1d(64, eps=1e-05, momentum=0.1, affine=True, track_running_stats=True)
      (fc3): Linear(in_features=64, out_features=256, bias=True)
      (bn3): BatchNorm1d(256, eps=1e-05, momentum=0.1, affine=True, track_running_stats=True)
      (relu): ReLU(inplace=True)
      (downsample): Sequential(
        (0): Linear(in_features=512, out_features=256, bias=True)
        (1): BatchNorm1d(256, eps=1e-05, momentum=0.1, affine=True, track_running_stats=True)
      )
    )
    (1): GeneResNetBlock(
      (fc1): Linear(in_features=256, out_features=64, bias=True)
      (bn1): BatchNorm1d(64, eps=1e-05, momentum=0.1, affine=True, track_running_stats=True)
      (fc2): Linear(in_features=64, out_features=64, bias=True)
      (bn2): BatchNorm1d(64, eps=1e-05, momentum=0.1, affine=True, track_running_stats=True)
      (fc3): Linear(in_features=64, out_features=256, bias=True)
      (bn3): BatchNorm1d(256, eps=1e-05, momentum=0.1, affine=True, track_running_stats=True)
      (relu): ReLU(inplace=True)
    )
  )
  (layer3): Sequential(
    (0): GeneResNetBlock(
      (fc1): Linear(in_features=256, out_features=32, bias=True)
      (bn1): BatchNorm1d(32, eps=1e-05, momentum=0.1, affine=True, track_running_stats=True)
      (fc2): Linear(in_features=32, out_features=32, bias=True)
      (bn2): BatchNorm1d(32, eps=1e-05, momentum=0.1, affine=True, track_running_stats=True)
      (fc3): Linear(in_features=32, out_features=128, bias=True)
      (bn3): BatchNorm1d(128, eps=1e-05, momentum=0.1, affine=True, track_running_stats=True)
      (relu): ReLU(inplace=True)
      (downsample): Sequential(
        (0): Linear(in_features=256, out_features=128, bias=True)
        (1): BatchNorm1d(128, eps=1e-05, momentum=0.1, affine=True, track_running_stats=True)
      )
    )
    (1): GeneResNetBlock(
      (fc1): Linear(in_features=128, out_features=32, bias=True)
      (bn1): BatchNorm1d(32, eps=1e-05, momentum=0.1, affine=True, track_running_stats=True)
      (fc2): Linear(in_features=32, out_features=32, bias=True)
      (bn2): BatchNorm1d(32, eps=1e-05, momentum=0.1, affine=True, track_running_stats=True)
      (fc3): Linear(in_features=32, out_features=128, bias=True)
      (bn3): BatchNorm1d(128, eps=1e-05, momentum=0.1, affine=True, track_running_stats=True)
      (relu): ReLU(inplace=True)
    )
  )
  (fc): Sequential(
    (0): Linear(in_features=128, out_features=64, bias=True)
    (1): BatchNorm1d(64, eps=1e-05, momentum=0.1, affine=True, track_running_stats=True)
  )
)
2024-10-10 15:32:05,376 - INFO - Projector: Projector(
  (layers): Sequential(
    (0): Linear(in_features=64, out_features=256, bias=False)
    (1): BatchNorm1d(256, eps=1e-05, momentum=0.1, affine=True, track_running_stats=True)
    (2): ReLU(inplace=True)
    (3): Linear(in_features=256, out_features=256, bias=False)
    (4): BatchNorm1d(256, eps=1e-05, momentum=0.1, affine=True, track_running_stats=True)
    (5): ReLU(inplace=True)
    (6): Linear(in_features=256, out_features=256, bias=False)
    (7): BatchNorm1d(256, eps=1e-05, momentum=0.1, affine=False, track_running_stats=True)
  )
)
2024-10-10 15:32:05,376 - INFO - MLP Bulk: MLPClassifier(
  (layers): Sequential(
    (0): Linear(in_features=1078, out_features=64, bias=True)
    (1): ReLU()
    (2): Linear(in_features=64, out_features=64, bias=True)
    (3): ReLU()
    (4): Linear(in_features=64, out_features=5, bias=True)
  )
)
2024-10-10 15:32:05,376 - INFO - MLP Embedded: MLPClassifier(
  (layers): Sequential(
    (0): Linear(in_features=64, out_features=64, bias=True)
    (1): ReLU()
    (2): Linear(in_features=64, out_features=64, bias=True)
    (3): ReLU()
    (4): Linear(in_features=64, out_features=5, bias=True)
  )
)
2024-10-10 15:32:05,376 - INFO - Stage 3: Training Barlow Twins...
2024-10-10 15:32:52,344 - INFO - Epoch 100 completed. Loss: 3.1487
2024-10-10 15:33:35,331 - INFO - Epoch 200 completed. Loss: 2.9128
2024-10-10 15:34:22,220 - INFO - Epoch 300 completed. Loss: 2.8167
2024-10-10 15:35:08,949 - INFO - Epoch 400 completed. Loss: 2.7744
2024-10-10 15:35:58,717 - INFO - Epoch 500 completed. Loss: 2.7218
…
