…
2024-10-03 15:02:01,749 - INFO - device: cuda
2024-10-03 15:02:01,749 - INFO - sc_path: ./cancer_single_cell_data/processed_data.h5ad
2024-10-03 15:02:01,749 - INFO - bulk_path: ./cancer_brca_metabric_bulk_data/data_mrna_illumina_microarray_zscores_ref_diploid_samples.txt
2024-10-03 15:02:01,749 - INFO - stage_path: ./cancer_brca_metabric_bulk_data/Tumor_Stage.txt
2024-10-03 15:02:01,749 - INFO - survival_path: ./Synapse_metabric/Clinical_Overall_Survival_Data_from_METABRIC.txt
2024-10-03 15:02:01,749 - INFO - Model Architectures:
2024-10-03 15:02:01,750 - INFO - Encoder: Encoder(
  (layers): Sequential(
    (0): Linear(in_features=16195, out_features=2048, bias=True)
    (1): BatchNorm1d(2048, eps=1e-05, momentum=0.1, affine=True, track_running_stats=True)
    (2): ReLU()
    (3): Dropout(p=0.2, inplace=False)
    (4): Linear(in_features=2048, out_features=1024, bias=True)
    (5): BatchNorm1d(1024, eps=1e-05, momentum=0.1, affine=True, track_running_stats=True)
    (6): ReLU()
    (7): Dropout(p=0.2, inplace=False)
    (8): Linear(in_features=1024, out_features=512, bias=True)
    (9): BatchNorm1d(512, eps=1e-05, momentum=0.1, affine=True, track_running_stats=True)
    (10): ReLU()
    (11): Dropout(p=0.2, inplace=False)
    (12): Linear(in_features=512, out_features=256, bias=True)
    (13): BatchNorm1d(256, eps=1e-05, momentum=0.1, affine=True, track_running_stats=True)
    (14): ReLU()
    (15): Dropout(p=0.2, inplace=False)
    (16): Linear(in_features=256, out_features=64, bias=True)
  )
)
2024-10-03 15:02:01,750 - INFO - Projector: Projector(
  (layers): Sequential(
    (0): Linear(in_features=64, out_features=256, bias=False)
    (1): BatchNorm1d(256, eps=1e-05, momentum=0.1, affine=True, track_running_stats=True)
    (2): ReLU(inplace=True)
    (3): Linear(in_features=256, out_features=256, bias=False)
    (4): BatchNorm1d(256, eps=1e-05, momentum=0.1, affine=True, track_running_stats=True)
    (5): ReLU(inplace=True)
    (6): Linear(in_features=256, out_features=256, bias=False)
    (7): BatchNorm1d(256, eps=1e-05, momentum=0.1, affine=False, track_running_stats=True)
  )
)
2024-10-03 15:02:01,750 - INFO - MLP Bulk: MLPClassifier(
  (layers): Sequential(
    (0): Linear(in_features=16195, out_features=64, bias=True)
    (1): ReLU()
    (2): Linear(in_features=64, out_features=64, bias=True)
    (3): ReLU()
    (4): Linear(in_features=64, out_features=5, bias=True)
  )
)
2024-10-03 15:02:01,750 - INFO - MLP Embedded: MLPClassifier(
  (layers): Sequential(
    (0): Linear(in_features=64, out_features=64, bias=True)
    (1): ReLU()
    (2): Linear(in_features=64, out_features=64, bias=True)
    (3): ReLU()
    (4): Linear(in_features=64, out_features=5, bias=True)
  )
)
2024-10-03 15:02:01,750 - INFO - Stage 3: Training Barlow Twins...
2024-10-03 15:03:30,791 - INFO - Epoch 100 completed. Loss: 8.4721
2024-10-03 15:04:59,437 - INFO - Epoch 200 completed. Loss: 6.6054
2024-10-03 15:06:28,270 - INFO - Epoch 300 completed. Loss: 5.6008
2024-10-03 15:07:57,309 - INFO - Epoch 400 completed. Loss: 5.1296
2024-10-03 15:09:26,655 - INFO - Epoch 500 completed. Loss: 4.9134
…
