…
2024-10-01 17:05:27,425 - INFO - device: cuda
2024-10-01 17:05:27,425 - INFO - sc_path: ./cancer_single_cell_data/processed_data.h5ad
2024-10-01 17:05:27,425 - INFO - bulk_path: ./cancer_brca_metabric_bulk_data/data_mrna_illumina_microarray_zscores_ref_diploid_samples.txt
2024-10-01 17:05:27,425 - INFO - stage_path: ./cancer_brca_metabric_bulk_data/Tumor_Stage.txt
2024-10-01 17:05:27,425 - INFO - survival_path: ./Synapse_metabric/Clinical_Overall_Survival_Data_from_METABRIC.txt
2024-10-01 17:05:27,425 - INFO - Model Architectures:
2024-10-01 17:05:27,425 - INFO - Encoder: Encoder(
  (layers): Sequential(
    (0): Linear(in_features=1371, out_features=2048, bias=True)
    (1): BatchNorm1d(2048, eps=1e-05, momentum=0.1, affine=True, track_running_stats=True)
    (2): ReLU()
    (3): Dropout(p=0.2, inplace=False)
    (4): Linear(in_features=2048, out_features=1024, bias=True)
    (5): BatchNorm1d(1024, eps=1e-05, momentum=0.1, affine=True, track_running_stats=True)
    (6): ReLU()
    (7): Dropout(p=0.2, inplace=False)
    (8): Linear(in_features=1024, out_features=512, bias=True)
    (9): BatchNorm1d(512, eps=1e-05, momentum=0.1, affine=True, track_running_stats=True)
    (10): ReLU()
    (11): Dropout(p=0.2, inplace=False)
    (12): Linear(in_features=512, out_features=256, bias=True)
    (13): BatchNorm1d(256, eps=1e-05, momentum=0.1, affine=True, track_running_stats=True)
    (14): ReLU()
    (15): Dropout(p=0.2, inplace=False)
    (16): Linear(in_features=256, out_features=64, bias=True)
    (17): Softplus(beta=1, threshold=20)
  )
)
2024-10-01 17:05:27,425 - INFO - Projector: Projector(
  (layers): Sequential(
    (0): Linear(in_features=64, out_features=1024, bias=True)
    (1): BatchNorm1d(1024, eps=1e-05, momentum=0.1, affine=True, track_running_stats=True)
    (2): ReLU()
    (3): Linear(in_features=1024, out_features=128, bias=True)
  )
)
2024-10-01 17:05:27,425 - INFO - MLP Bulk: MLPClassifier(
  (layers): Sequential(
    (0): Linear(in_features=1371, out_features=64, bias=True)
    (1): ReLU()
    (2): Linear(in_features=64, out_features=64, bias=True)
    (3): ReLU()
    (4): Linear(in_features=64, out_features=5, bias=True)
  )
)
2024-10-01 17:05:27,425 - INFO - MLP Embedded: MLPClassifier(
  (layers): Sequential(
    (0): Linear(in_features=64, out_features=64, bias=True)
    (1): ReLU()
    (2): Linear(in_features=64, out_features=64, bias=True)
    (3): ReLU()
    (4): Linear(in_features=64, out_features=5, bias=True)
  )
)
2024-10-01 17:05:27,425 - INFO - Stage 3: Training Barlow Twins...
2024-10-01 17:06:01,700 - INFO - Epoch 100 completed. Loss: 3.1356
2024-10-01 17:06:38,845 - INFO - Epoch 200 completed. Loss: 2.2546
2024-10-01 17:07:14,260 - INFO - Epoch 300 completed. Loss: 1.7541
2024-10-01 17:07:40,962 - INFO - Epoch 400 completed. Loss: 1.4601
2024-10-01 17:08:01,213 - INFO - Epoch 500 completed. Loss: 1.2557
…
