…
2024-09-26 17:49:24,492 - INFO - training_dataset_name: All
2024-09-26 17:49:24,492 - INFO - testing_dataset_name: Metabric
2024-09-26 17:49:24,492 - INFO - device: cuda
2024-09-26 17:49:24,492 - INFO - sc_path: ./cancer_single_cell_data/processed_data.h5ad
2024-09-26 17:49:24,492 - INFO - bulk_path: ./cancer_brca_metabric_bulk_data/data_mrna_illumina_microarray_zscores_ref_diploid_samples.txt
2024-09-26 17:49:24,492 - INFO - patient_path: ./cancer_brca_metabric_bulk_data/Tumor_Stage.txt
2024-09-26 17:49:24,492 - INFO - Model Architectures:
2024-09-26 17:49:24,493 - INFO - Encoder: Encoder(
  (layers): Sequential(
    (0): Linear(in_features=3053, out_features=2048, bias=True)
    (1): BatchNorm1d(2048, eps=1e-05, momentum=0.1, affine=True, track_running_stats=True)
    (2): ReLU()
    (3): Dropout(p=0.2, inplace=False)
    (4): Linear(in_features=2048, out_features=1024, bias=True)
    (5): BatchNorm1d(1024, eps=1e-05, momentum=0.1, affine=True, track_running_stats=True)
    (6): ReLU()
    (7): Dropout(p=0.2, inplace=False)
    (8): Linear(in_features=1024, out_features=512, bias=True)
    (9): BatchNorm1d(512, eps=1e-05, momentum=0.1, affine=True, track_running_stats=True)
    (10): ReLU()
    (11): Dropout(p=0.2, inplace=False)
    (12): Linear(in_features=512, out_features=256, bias=True)
    (13): BatchNorm1d(256, eps=1e-05, momentum=0.1, affine=True, track_running_stats=True)
    (14): ReLU()
    (15): Dropout(p=0.2, inplace=False)
    (16): Linear(in_features=256, out_features=64, bias=True)
  )
)
2024-09-26 17:49:24,493 - INFO - Projector: Projector(
  (layers): Sequential(
    (0): Linear(in_features=64, out_features=512, bias=True)
    (1): BatchNorm1d(512, eps=1e-05, momentum=0.1, affine=True, track_running_stats=True)
    (2): ReLU()
    (3): Linear(in_features=512, out_features=128, bias=True)
  )
)
2024-09-26 17:49:24,493 - INFO - MLP Bulk: MLPClassifier(
  (layers): Sequential(
    (0): Linear(in_features=3053, out_features=64, bias=True)
    (1): ReLU()
    (2): Linear(in_features=64, out_features=64, bias=True)
    (3): ReLU()
    (4): Linear(in_features=64, out_features=5, bias=True)
  )
)
2024-09-26 17:49:24,493 - INFO - MLP Embedded: MLPClassifier(
  (layers): Sequential(
    (0): Linear(in_features=64, out_features=64, bias=True)
    (1): ReLU()
    (2): Linear(in_features=64, out_features=64, bias=True)
    (3): ReLU()
    (4): Linear(in_features=64, out_features=5, bias=True)
  )
)
2024-09-26 17:49:24,493 - INFO - Stage 3: Training Barlow Twins...
2024-09-26 17:49:26,187 - INFO - Stage 4: Preparing data for classification...
2024-09-26 17:49:26,191 - INFO - Stage 5: Generating Barlow Twins embeddings...
2024-09-26 17:49:26,354 - INFO - Bulk tensor saved to result/Metabric_20240926_174909/bulk_tensor.pt
2024-09-26 17:49:26,354 - INFO - Embeddings saved to result/Metabric_20240926_174909/embedding.pt
…
