…
2024-09-23 16:16:04,129 - INFO - fra_save_path: ./fra_pre
2024-09-23 16:16:04,129 - INFO - training_dataset_name: All
2024-09-23 16:16:04,129 - INFO - testing_dataset_name: Metabric
2024-09-23 16:16:04,129 - INFO - device: cuda
2024-09-23 16:16:04,129 - INFO - sc_path: ../cancer_data/92_sc_healthy.h5ad
2024-09-23 16:16:04,129 - INFO - bulk_path: ../brca_metabric/data_mrna_illumina_microarray_zscores_ref_diploid_samples.txt
2024-09-23 16:16:04,129 - INFO - patient_path: ../brca_metabric/Tumor_Stage.txt
2024-09-23 16:16:04,129 - INFO - Model Architectures:
2024-09-23 16:16:04,129 - INFO - Encoder: Encoder(
  (layers): Sequential(
    (0): Linear(in_features=17726, out_features=2048, bias=True)
    (1): BatchNorm1d(2048, eps=1e-05, momentum=0.1, affine=True, track_running_stats=True)
    (2): ReLU()
    (3): Dropout(p=0.2, inplace=False)
    (4): Linear(in_features=2048, out_features=1024, bias=True)
    (5): BatchNorm1d(1024, eps=1e-05, momentum=0.1, affine=True, track_running_stats=True)
    (6): ReLU()
    (7): Dropout(p=0.2, inplace=False)
    (8): Linear(in_features=1024, out_features=512, bias=True)
    (9): BatchNorm1d(512, eps=1e-05, momentum=0.1, affine=True, track_running_stats=True)
    (10): ReLU()
    (11): Dropout(p=0.2, inplace=False)
    (12): Linear(in_features=512, out_features=256, bias=True)
    (13): BatchNorm1d(256, eps=1e-05, momentum=0.1, affine=True, track_running_stats=True)
    (14): ReLU()
    (15): Dropout(p=0.2, inplace=False)
    (16): Linear(in_features=256, out_features=64, bias=True)
  )
)
2024-09-23 16:16:04,130 - INFO - Projector: Projector(
  (layers): Sequential(
    (0): Linear(in_features=64, out_features=512, bias=True)
    (1): BatchNorm1d(512, eps=1e-05, momentum=0.1, affine=True, track_running_stats=True)
    (2): ReLU()
    (3): Linear(in_features=512, out_features=128, bias=True)
  )
)
2024-09-23 16:16:04,130 - INFO - MLP Bulk: MLPClassifier(
  (layers): Sequential(
    (0): Linear(in_features=17726, out_features=64, bias=True)
    (1): ReLU()
    (2): Linear(in_features=64, out_features=64, bias=True)
    (3): ReLU()
    (4): Linear(in_features=64, out_features=5, bias=True)
  )
)
2024-09-23 16:16:04,130 - INFO - MLP Embedded: MLPClassifier(
  (layers): Sequential(
    (0): Linear(in_features=64, out_features=64, bias=True)
    (1): ReLU()
    (2): Linear(in_features=64, out_features=64, bias=True)
    (3): ReLU()
    (4): Linear(in_features=64, out_features=5, bias=True)
  )
)
2024-09-23 16:16:04,130 - INFO - Stage 3: Training Barlow Twins...
2024-09-23 16:18:22,088 - INFO - Epoch 100 completed. Loss: 3.8640
2024-09-23 16:20:39,250 - INFO - Epoch 200 completed. Loss: 2.8351
2024-09-23 16:22:57,366 - INFO - Epoch 300 completed. Loss: 2.3212
2024-09-23 16:25:13,588 - INFO - Epoch 400 completed. Loss: 2.0584
2024-09-23 16:27:29,579 - INFO - Epoch 500 completed. Loss: 1.8334
…
